results/semi_grad_sarsa/MiniGrid-DistShift1-v0/sample.pth (torch, 58750 bytes, 6 tensors)

0.weight f4 [100, 35]
00000000: 079b fc3d 952e b73d 72be 6cbe d2aa 0dbe
00000010: a3f5 003d 6356 dbbb 7986 603d 44d4 a33d
00000020: 89de ddbb a0ba 30be 734f 20be 1586 8f3d
00000030: 3081 8fbd 280f 4ebd 3226 07be 0de8 003e
00000040: 955a db3d fccd 163e 5b3e e83d 4744 2bbe
00000050: 44fc 12bd 6fd7 a13d c203 d13d 32ae 19be
00000060: d36a c7bd d1bb 5c3e 1c2a 1f3e a560 57bd
00000070: 64dc 8abd 9dd6 943d fa6d 85bd 732b f43d
00000080: f410 e93d 86e2 babd e895 27be fef4 3d3d
00000090: 31fc 1fbe 4bfa 27be 1799 12be a1c4 8f3d
000000a0: 9213 bc3d 786f b9bd 8cf8 86bd 1877 073e
000000b0: 4e40 c53d a7eb 11be cf27 b63c c91e 2ebc
000000c0: a37f 113d ce4e 4fbd 96b4 0dbe d0c5 963d
000000d0: 639c 2abe 45ac 10be df14 37b9 3aab d53c
000000e0: 5405 07bd 40ed dabd 4e2e 803d c217 11be
000000f0: 2d89 02be 4ebb 95bd d791 ffbc 5cff e5bb
00000100: a445 01be d7eb 643c b601 6bbc cf17 17be
00000110: 5943 21be a269 163e 3436 223d e0ee a53d
00000120: 84bf d53d 012d 39be 1930 fcbd 889c 243e
00000130: 7eaa 0a3e 07da 243d e428 1a3e 3825 193e
00000140: d25b 0b3d b312 88bd 67fa 0b3e bdb2 7e3b
00000150: 23c3 afbc 798f c9bc 4019 20be 9df2 f63c
00000160: 0db2 dcbd a9ab fdbd d061 81bd 1923 aa3d
00000170: fd21 44be d9f6 0bbe 57c0 84bd b971 adbd
00000180: 678c 8abd 50b5 4b3d 47d2 11bd 5b7c 753b
00000190: 2db7 f73c 63a8 1f3b 992c f23d 78e7 05bd
000001a0: 26aa 403d a3a9 e63c 3c8f ebbd ddd8 15be
000001b0: f0a4 943c 9e5c f5bd 8a5a d63d bab7 143e
000001c0: 8716 b3bb 5bb7 59be fd9c ca3d f54c 063d
000001d0: 837e c53d 2df3 de3c 50d0 c83d df98 9dbd
000001e0: 24f9 fd3d 35b2 8d3d 5f4d dcbc ade0 b63d
000001f0: b4df 9c3d 6326 063e 856f e83c b8e1 e8bd
00000200: 5bff 2dbd 811e 12be 6cc8 343e e496 74bd
00000210: 0754 e0bd 616d 94bd a208 df3d 7aa7 ebbd
00000220: d12a 563e d738 813d 4ebc 05bd df64 53bd
00000230: e328 1ebc 07f5 a5bd 2a91 f03c b1d5 653d
00000240: fb52 77bc c95b aa3d fb1e 1bbe ffb3 983d
00000250: 9c09 ce3d f42c 7dbd 5e8b 173c bae5 1abd
00000260: ac85 e43d bd22 5bbd 294a 09bc 91e6 783d
00000270: 5c70 74bd d2f2 333c 18b5 813b ed40 d53d
00000280: 64c6 b6bd 9ee3 cabd 8f84 1b3e c390 1e3e
00000290: 88ae bfbd e0b8 f43c c924 10bd 0c0d 083e
000002a0: b7a9 c3bd ce3c 65ba 8d66 28be 42c2 a3bd
000002b0: 1ab8 143e ee21 46bd 5c1b 0dbe c424 99bd
000002c0: e9cb fb3d 2aed 49be 9444 823d 92e1 57be
000002d0: 0e95 44be ee5c 9ebd ad5b 2fbe 9748 0f3e
000002e0: c8ff d23d b320 4c3c 9eaf 76bd 9149 53bc
000002f0: 6dd6 1a3e 3c5c dd3d 95c4 043e 7be4 fd3d
00000300: 5ef4 cd3c 4187 91bc e811 ab3d 70a1 79bd
00000310: 77fe 243e ad2a b5bc 870d c4bd 5282 193e
00000320: f68a 963e 4e5f 643e 685b b4bd 9af7 353e
00000330: 0e01 c2bd e4e4 f33d 3a48 133e a9fe 913c
00000340: 3d1d c1bd eeed 7cbd 2eff 273d 1434 123e
00000350: 1ea3 183e b189 4f3e 314e dd3d 6200 8b3c
00000360: 5d7f 3a3e 7b30 91bd 0f7a 203e 3764 313c
00000370: 4eea 0d3e d996 4f3d 99c9 de3d bcb7 16be
00000380: 6b28 c03d 2cad 803c 9285 b4bc 860c 323e
00000390: e646 1bbe 654f 3a3e ee79 debc 1eb9 b8bc
000003a0: ef2c 2e3e 4fcf adbc 5aa4 9fbb 8eaf 1dbe
000003b0: 4b8f 8cbc cefa f9bd efcb c3bc cf81 ea3c
000003c0: 49c1 ef3d 01ce 32be 9e70 2bbe fa09 03be
000003d0: 2778 af3d 8bf5 263e 104e bb3c 53ad 22be
000003e0: 7cc7 cdbd 9b4f 0abe a15b 833e 18e4 133d
000003f0: 335f f33c 1417 37bd de1f a63c 6f87 6ebd
0.123342566 0.08944432 -0.23119524 -0.13834694 0.031484257 -0.0066936477 0.054815743 0.07999471
-0.006770913 -0.17258692 -0.15655307 0.07007996 -0.070070624 -0.050307423 -0.13198164 0.1258852
0.107106365 0.14727014 0.11340018 -0.16725264 -0.03588511 0.07902419 0.10205795 -0.15007856
-0.09737172 0.21556021 0.15543407 -0.0525824 -0.067803174 0.07267497 -0.06515117 0.1192235
0.11380187 -0.09125237 -0.16365778 0.04637622 -0.15623547 -0.16404073 -0.14316212 0.07019926
0.0918342 -0.09054464 -0.06590375 0.13229024 0.09631406 -0.1425005 0.02223578 -0.010627457
0.035522114 -0.050612263 -0.1383842 0.073619485 -0.1666122 -0.14128216 -0.00017460015 0.026082624
-0.032964066 -0.10689783 0.06258832 -0.14169219 -0.12747641 -0.07311116 -0.031197472 -0.0070189666
-0.12624222 0.013972244 -0.01434367 -0.14755176 -0.15748347 0.14688733 0.039602473 0.081022024
0.10436919 -0.18083574 -0.123138614 0.16075337 0.135416 0.04024699 0.15054661 0.14955604
0.034023114 -0.066441916 0.1366974 0.003886386 -0.021455353 -0.024604546 -0.15634632 0.030144984
-0.10776148 -0.12386257 -0.063174844 0.083074756 -0.1915359 -0.13668384 -0.064819984 -0.084689565
-0.06765061 0.04973346 -0.035600927 0.0037458155 0.030238712 0.002436184 0.118249126 -0.03269145
0.047037266 0.028157061 -0.11501929 -0.14633508 0.018145055 -0.11980556 0.10466488 0.14523211
-0.005465332 -0.21261351 0.098932244 0.032788236 0.09643271 0.027215565 0.098053575 -0.076951735
0.124010354 0.06918756 -0.026892362 0.08929572 0.076598555 0.13100581 0.02837349 -0.113711774
-0.042479854 -0.14269449 0.1765458 -0.059714213 -0.10953527 -0.07247425 0.108903185 -0.11506553
0.2091477 0.063096695 -0.032650284 -0.05160987 -0.009653303 -0.08103376 0.029366095 0.056111995
-0.015095468 0.08318288 -0.15148537 0.074562065 0.100604266 -0.06181045 0.009249536 -0.03781674
0.111583084 -0.053499926 -0.008379498 0.06076676 -0.059677467 0.010983186 0.0039583556 0.10412774
-0.08924559 -0.09906696 0.15187286 0.1548491 -0.09359461 0.029873312 -0.03519133 0.13286227
-0.09553855 -0.00087447173 -0.1644537 -0.07996036 0.14523354 -0.0483722 -0.13779968 -0.074777156
0.12294752 -0.19719377 0.063607365 -0.21082142 -0.19197485 -0.07732569 -0.17124815 0.13992535
0.10302693 0.012458968 -0.060226075 -0.012895958 0.1512086 0.10808608 0.12965615 0.12397095
0.025140937 -0.01776469 0.08353025 -0.060944974 0.16112696 -0.022115076 -0.09572893 0.1499112
0.29402894 0.22301981 -0.08806497 0.17770234 -0.094728574 0.11908892 0.14383021 0.017821627
-0.09429405 -0.061750345 0.041014843 0.14277679 0.14905974 0.20267369 0.108059295 0.016967956
0.18212648 -0.07089325 0.15671562 0.010827116 0.13858911 0.05068097 0.108782955 -0.14718527
0.09382709 0.015707575 -0.022036348 0.1738759 -0.15163764 0.18194349 -0.02715775 -0.022549208
0.17009328 -0.021217017 -0.004871887 -0.15399 -0.017158171 -0.1220604 -0.023900954 0.02862635
0.11706788 -0.17461397 -0.16742179 -0.12796775 0.08567839 0.16304605 0.022864372 -0.1588643
-0.10047814 -0.1350693 0.25655845 0.0361062 0.02970848 -0.044699743 0.020278867 -0.05823463

0.bias f4 [100]
00000000: 361f a33d 93c6 063e 2d63 cc3d 076d 1d3e
00000010: c36d 18be 3dd1 16be f98c 07be a3cd f83d
00000020: d0c0 e3bd d3b9 12be 3a27 163d 0cea fabc
00000030: 5822 9f3d 5b8d e2bd ef26 2bbe 3b19 33bd
00000040: 9a88 163e c977 96bc ac76 433d 6e71 473d
00000050: 029b ee3d 8f91 0abe 5637 123e 5240 193d
00000060: be70 b6bd 82bc 133e c8ff 91bd 864a 67bc
00000070: bdaf 47bd ec0a f83d ecd2 e23d f952 1c3e
00000080: 5dd9 2e3e e4c2 003e 0979 edbc e6fc e4bd
00000090: e87e 39bd ac75 233e f2d5 333e 6157 debd
000000a0: 2354 bdbb 7bdf 04be baba 283e 6a1c 2f3e
000000b0: 4830 ab3d f287 853d fbfc 8e3b a5df a83d
000000c0: cd54 e3bd 0a0c a93d 40f0 77bd e181 8dbd
000000d0: 93c2 c83b d111 da3c a240 f1bd a4c8 18bc
000000e0: 2184 153d 0d29 d2bd 1fb8 b5bd aa30 a2bc
000000f0: 8679 113e e574 9cbd df62 b2bd 83cd 343d
00000100: 992e 0c3e 4452 f7bd 2755 003e 7f72 f2bd
00000110: e3eb 013e 0ca5 623d 6061 e8bd 3a53 a03d
00000120: c086 d63d f39a f9bd 5d4a 193e 6be3 e1bd
00000130: 9a1b 9c3c 10b2 473c af29 1b3e 2971 033e
00000140: eecf 6e3a 983a 4bbd 56c6 123e df78 d93d
00000150: fd55 b03d 017a a73d b0b5 823d 7107 f6bc
00000160: 1060 0c3c c7f9 fc3d a8bf 6c3d 87da 8b3d
00000170: de15 103e 784a 003e 4e0b 013c 1a0d 58bd
00000180: 7aaf 19bd 5eb7 10bd fb5d 1ebe e7ab 80bd
0.079649374 0.13161688 0.09979854 0.15373622 -0.14885621 -0.14728256 -0.1323737 0.12148597
-0.111207604 -0.14328699 0.036658503 -0.03062918 0.077702224 -0.11062118 -0.1671407 -0.043725234
0.14700547 -0.018367665 0.047720596 0.04869216 0.11650659 -0.13532089 0.14278921 0.037414856
-0.089082226 0.14427379 -0.071288645 -0.014116889 -0.04875158 0.12111458 0.110753864 0.15266027
0.17075105 0.12574345 -0.028988378 -0.11181049 -0.045287043 0.15962857 0.17562082 -0.1085651
-0.005777852 -0.12975876 0.1647748 0.17100683 0.08358818 0.0652007 0.0043636537 0.08245782
-0.11100159 0.082542494 -0.060531855 -0.06909538 0.0061267107 0.026619824 -0.11779906 -0.00932518
0.03650296 -0.10261736 -0.08873009 -0.019798595 0.14206514 -0.07639483 -0.087102644 0.044141304
0.1368965 -0.12076238 0.12532483 -0.11838245 0.1268764 0.055333182 -0.11346698 0.07828374
0.1047492 -0.12187757 0.14969774 -0.11029705 0.01905613 0.0121884495 0.1515262 0.12836136
0.00091099634 -0.049616426 0.14333472 0.106187575 0.08610151 0.08177567 0.063823104 -0.030032845
0.008567825 0.12352329 0.057799965 0.0682879 0.14070842 0.12528408 0.00787623 -0.05274687
-0.037520863 -0.035331123 -0.15465538 -0.06282788

2.weight f4 [100, 100]
00000000: c1c8 20bb 77dc 09bd 99d2 18bd a663 4f3d
00000010: d78b 363d 5319 3dbd 70b9 733c 67fb f4bb
00000020: 2360 18bd e7bb 363d 2e99 5b3d 0002 9a3d
00000030: 20ea 303d d001 9b3d 45f9 523c 5734 95bc
00000040: 3e06 a53d 30b1 083d 0346 4bbd c020 a53d
00000050: 56bd 4ebd 7db1 adbd d2b4 adbd 33c4 073c
00000060: 34ea 46bc 3c04 aa3d 1be1 aabd 2ad0 973d
00000070: b461 4b3d a30a 0fbd 1f29 a2bd 27b4 32bc
00000080: 2c92 a9bd f18d 05bd 85d8 a93c ebb1 82bd
00000090: b0a1 4f3d 03a1 173d 25a4 08bd 2085 8ebc
000000a0: dce2 ad3b e32a a03d 9a00 65bc 6df4 8fbd
000000b0: 2ed5 27bd 2698 b83d 807a 813b 600b 603d
000000c0: 4d3e b7bc f81c 85bd 9d0c b4bd 20b6 a3bd
000000d0: a2f0 97bc 1ea4 7a3d a01c ec3c 9049 6f3d
000000e0: 454e 80bd 8deb 313c 1357 0cbd 0fb4 a6bd
000000f0: 3568 6e3d 67c7 073c d7ec 383d 3805 da3c
00000100: 859a 0c3c 9e91 813c e7e4 9cbb 2a96 52bd
00000110: 22a7 bebd 70ab 8dbd 2653 87ba faf7 bebd
00000120: e2f3 c53d f3e8 063d d16c 813b f7ca 10bd
00000130: 8d14 0cbd 767d 48bd 43dd 7d3d 61fb aabd
00000140: 6ead 703d e768 d8bb a0e8 af3d 1936 c3bd
00000150: ab61 04bd 475a aabd c41e 5abd 7424 7c3d
00000160: cafa 79bd e99f 72bd 7f3e c13d 5a79 c33c
00000170: efa1 89bd 58da 213d 7dee 98bd 623e 4bbd
00000180: 01c6 49bd 8723 9cbc 9a34 ddbb a37c b1bc
00000190: f584 8ebd 4ba6 ae3d 878f 433d ed9b 133d
000001a0: cda2 0cbb 9a10 cbbc 1a47 2f3c cd9d 3b3d
000001b0: 93ec 31bd e70f 4b3d 902e 233d 3ded 9cbd
000001c0: a038 a3bd c0ee 853c 0059 4ebc dab1 47bc
000001d0: 67f9 d9bb 3a41 ce3c 003a 563c e0a9 8b3c
000001e0: 3807 b5bd e779 b63c 7a4d 99bd ea05 a83d
000001f0: 7359 c2bc b75a c53d bff1 ac3d a705 0bbc
00000200: a3e6 6cbd 4ad4 6c3d 630d b6bd 7780 b8bd
00000210: 0d5c a43c 8aaa 2f3d 1a7b a73b bd40 733d
00000220: add6 8bbc b7da 023d adc7 053d 6743 6fbc
00000230: e805 a3bd 7f9d a4bd 1aec 47bd e7ee e33c
00000240: 332b bebb c04f 0e3d 7f2d 843d e587 c13d
00000250: e7de 803c 4d61 f6bc 1a32 913d 206f 3abd
00000260: 0d6f 6d3c 4ff6 b1bd d0ff 353d 2071 21bd
00000270: 27d2 473c 5f56 cabd 8021 873c dd19 2d3d
00000280: ca04 15bd 8869 c13d 409c c3bc da13 003c
00000290: ad5c b2bc 632b cabd 8a87 393d 4233 9d3d
000002a0: 9020 1a3d 00c5 c7bc c36c 23bd e2cf bd3d
000002b0: f76a 32bd 9387 0e3d 8d00 643d faea 863c
000002c0: ca48 4ebd 55b5 b8bd 0709 6a3d 5382 c5bd
000002d0: 709d 083d cafc 0a3d 87d1 a53c d5e3 c8bd
000002e0: fda6 be3d 9356 6dbd 8d73 94bc 4896 853d
000002f0: b36a c73c 30eb c53d aa9a 95bd 2ffa aebd
00000300: a74c 8f3d 3fbb bf3d 102e 6dbd 4779 023d
00000310: 6766 5ab6 67b8 bc3d 53cd 183d 6319 113d
00000320: 6bdf 09bd 805a 14bc e22a 5ebd 2b73 8a3d
00000330: 332b a53c e220 41bd 0ee6 64bd b219 433d
00000340: 034e 58bd 9ad9 ec38 b300 3a3d 8050 c13b
00000350: 3ab3 933d 886b b9bd 084c 59bd f684 d43c
00000360: 6ad2 45bc 06b0 cd3b 02d7 8dbd 3cd0 02be
00000370: b50f 0a3d fa77 833d c28e abbd 7316 803d
00000380: a449 8c3d 07d2 96bd 458f 7dbd 5e3f 7dbd
00000390: 5070 8dbd d8d8 00bd 9a30 09bd 18dc 4f3d
000003a0: bbf7 cabd a4a8 b93d c485 413b 0419 0139
000003b0: 759c 903d c3bd 083c 5014 813d 6919 153e
000003c0: 32b8 f23d 7a99 42bd 0da8 4e3c 7f34 91bc
000003d0: c2b1 d73d 7467 a1bc c3de 14bd 0d4a 2c3c
000003e0: 7d7a 7cbd 154d a4bc dc40 32bd cfd0 cf3c
000003f0: 72d9 3bbd 9206 bfbc 0bf2 69bc 2dcd a5bc
-0.002453372 -0.033657517 -0.037310217 0.05063214 0.044566955 -0.04616673 0.014875755 -0.0074762586
-0.037201058 0.04461279 0.05361288 0.07519913 0.04319203 0.07568705 0.012876813 -0.018213434
0.08057831 0.033372104 -0.049627315 0.08062887 -0.050473534 -0.08481119 -0.08481754 0.008286524
-0.012140799 0.08301589 -0.08343717 0.07412751 0.049653724 -0.034922253 -0.079179995 -0.0109072095
-0.08279833 -0.03260607 0.020733127 -0.063815914 0.050691307 0.037018787 -0.033359665 -0.017397463
0.0053065848 0.0782068 -0.013977194 -0.070290424 -0.04097479 0.09013395 0.0039513707 0.054698348
-0.022368575 -0.06499666 -0.08791468 -0.07993722 -0.01854736 0.06119167 0.028822243 0.058419764
-0.06264929 0.010859382 -0.034262728 -0.08139812 0.05820485 0.008287287 0.045147743 0.026613817
0.008581762 0.015816506 -0.0047880295 -0.05141274 -0.09309222 -0.06917465 -0.0010324463 -0.093246415
0.096656576 0.032937 0.0039497395 -0.035349812 -0.034199286 -0.048947774 0.06197859 -0.08348728
0.058759145 -0.006604302 0.085892916 -0.09531803 -0.032319706 -0.08318 -0.053251997 0.061558202
-0.061030187 -0.059234533 0.09435748 0.023861576 -0.067203395 0.03951487 -0.07467363 -0.04962004
-0.049261097 -0.01905991 -0.0067506554 -0.021665877 -0.06958953 0.085278116 0.0477443 0.036037374
-0.0021459342 -0.02478819 0.010698104 0.045804787 -0.043438505 0.049575713 0.039839327 -0.07662437
-0.07969785 0.016349196 -0.012594461 -0.012188399 -0.0066520455 0.025177587 0.013075352 0.017048776
-0.088392675 0.022274924 -0.074854806 0.08204253 -0.023724293 0.09636443 0.08444547 -0.008485234
-0.05783714 0.057819642 -0.08889272 -0.09008878 0.020063424 0.042887248 0.0051111104 0.05938791
-0.017070139 0.031946864 0.03266113 -0.014603472 -0.07960111 -0.080378525 -0.04880915 0.027823878
-0.0058034896 0.034744024 0.0645399 0.09449748 0.015731288 -0.030075694 0.07089634 -0.045516133
0.014491809 -0.08689558 0.044433415 -0.039414525 0.0121961 -0.09879755 0.016495466 0.042260993
-0.03638152 0.094439566 -0.023878217 0.007817233 -0.021772707 -0.098715566 0.045295276 0.07675792
0.03762871 -0.02438593 -0.039898645 0.09268166 -0.04355904 0.034797262 0.055664588 0.016469467
-0.050362386 -0.09018961 0.057137515 -0.09643998 0.03335327 0.033932485 0.020241512 -0.098090805
0.09309194 -0.05794389 -0.018121505 0.065228045 0.02434287 0.09663999 -0.073048905 -0.085438125
0.06997042 0.09361886 -0.057905257 0.03185394 -3.2544137e-06 0.092148595 0.037305187 0.0354246
-0.033660334 -0.00905478 -0.054240115 0.06760248 0.0201622 -0.0471505 -0.05588346 0.047631927
-0.052808773 0.000112938884 0.045410823 0.005899489 0.07211919 -0.09053713 -0.053051025 0.025942307
-0.012074092 0.006277087 -0.06925775 -0.12774748 0.033706386 0.06419368 -0.08376838 0.06254282
0.06849983 -0.07364278 -0.06190421 -0.06182801 -0.069061875 -0.0314568 -0.033493616 0.050747007
-0.09910532 0.09065369 0.0029529193 0.00012311718 0.07061092 0.008346024 0.063027024 0.14560474
0.11851539 -0.047509648 0.012613309 -0.017725227 0.105319515 -0.01970265 -0.036345255 0.010515702
-0.06164025 -0.020056287 -0.043518886 0.025368122 -0.04586167 -0.023318563 -0.014278899 -0.020239437

2.bias f4 [100]
00000000: 7a13 7fbc e7d3 b2bd ef7e 76bc 117c 30bd
00000010: 4271 fdbb 7191 60bd 78be 973d c152 f83d
00000020: 6a30 773c 3054 babc 3025 8abc 3ce6 b4bd
00000030: 8d93 abbd 7cf4 a0bc b24e 68bd 7180 f03d
00000040: 35f9 bf3d 1814 5ebd 3bb9 aa3d f275 4abd
00000050: 2636 4ebd be5d 3d3d faf6 8fbd ada5 cdbc
00000060: f270 21bd cafe 95bd ee65 9fbc b32d c8bd
00000070: c549 42bd 338c 1b3c cda4 98bd ec3f a2bd
00000080: 2b72 4a3d 0da4 94bd 9428 a83d 6a6f 793d
00000090: e148 1fbd 7cfb 19bd 3b42 ac3d 7318 4f3d
000000a0: 4b30 3ebc c4c8 4cbd 24a6 813d 4370 8dbd
000000b0: 4082 15bc 2722 abbc bd6a 3cbd 3570 4cbb
000000c0: 9397 6f3d 4710 b83d 9316 cabd 93c1 cb3d
000000d0: c252 ccbc 9ae6 62bd cfbc fd3d 58ee a5bd
000000e0: 4910 4e3b e141 8dbd 7ccc 7b3c 52a4 2dbd
000000f0: 21e0 1b3d 187b babd 864c e53d 947b b73d
00000100: aa23 7ebd 1b10 a7bd 6915 543d a312 f93d
00000110: e614 333d aec1 8f3c 8181 9d3c 35c3 18bd
00000120: 9526 57bd 2b4c 99bd a726 8b3c 90fa abbd
00000130: 7a41 a9bd bc92 963d 6103 773d 4e57 0d3d
00000140: 516f b03d 4452 0ebd 99b2 ccbd 6f77 38bd
00000150: 481b b7bd f21b 743d 151d 953d fa0d aa3d
00000160: 2705 37bb 8922 9ebd 7d5e 833d 2577 d83c
00000170: bfff e0bc 986b 2e3c b00a ba3d 9aae c73b
00000180: 3bef 06bd 6030 6cbd e510 aa3d 151e 61bd
-0.015568608 -0.087318234 -0.015044912 -0.04308707 -0.0077344486 -0.054826204 0.07409376 0.12125159
0.015087226 -0.022745222 -0.016863436 -0.08832976 -0.083777525 -0.01964783 -0.056715675 0.11743248
0.09373704 -0.05421838 0.08336111 -0.049428888 -0.05034461 0.046231978 -0.07029529 -0.025103414
-0.039414354 -0.07323988 -0.019457784 -0.097743414 -0.047433633 0.009493875 -0.07453308 -0.079223484
0.049425285 -0.07257853 0.08210865 0.06089727 -0.038887862 -0.03759335 0.0841107 0.050560426
-0.011608194 -0.049996153 0.06330517 -0.06906178 -0.009125292 -0.020890309 -0.04600023 -0.003119481
0.05849416 0.0898748 -0.09867587 0.09949031 -0.024941806 -0.0553957 0.12389528 -0.08102101
0.0031442812 -0.06897331 0.015368577 -0.042393036 0.038055543 -0.091055095 0.11196236 0.089591175
-0.06204573 -0.08157369 0.05177823 0.12161758 0.043721102 0.017548408 0.019226791 -0.03729554
-0.05252703 -0.07485231 0.016986204 -0.083974004 -0.08264442 0.07352206 0.060305957 0.03450709
0.08614982 -0.034746423 -0.09995002 -0.045035776 -0.0894075 0.059596963 0.072809376 0.08303447
-0.0027926655 -0.07721431 0.064145066 0.026424 -0.0274657 0.01064577 0.0908407 0.006093812
-0.03294299 -0.05766332 0.083040036 -0.05496033

4.weight f4 [4, 100]
00000000: c6a0 e4bc 8ddc c73d c998 82bd 245e 893a
00000010: 146f 1d3d d969 85bd ffdf 253d c94f 893d
00000020: fe3d 1ebd 6f31 7dbc 14dc 09bd 98d0 c03d
00000030: 81ae 52bd e42d 933d a6de a53c 6e2d ba3d
00000040: 29cd e83c 077d e93d 2788 f53d bd2f 753c
00000050: ed11 103c cfd2 a73c 50ab 233d 383e b6bd
00000060: 7b57 eebc 2273 07be cded dd3c e3f9 b33d
00000070: fb9a 363c dfd0 8e3d 1ff0 bebd 462d 8a3d
00000080: 324a af3d 8c66 b93d 99df 0b3c 1312 af3d
00000090: 6487 34bd 4be9 0f3c 31b7 a2bc f307 ca3c
000000a0: 2bfa 34bc 80c6 e7bc 6b5c 6cbd cddb 13bd
000000b0: 9dca 7f3d 0549 babd 704b 7e3d 5880 17bd
000000c0: 18ab 82bd b200 013d 5d5b 66bd f35a 71bd
000000d0: 2a31 c9bb c83f b13d 42db 4d3d 3316 adbc
000000e0: 7f55 183d 3fa8 3fbe bbfc 6e3d cd24 de3b
000000f0: adfd c9bd ff1b 80bd 95c0 f4bb be48 803d
00000100: 2804 433d 0208 a2bd d35e cb3a dc36 c23d
00000110: b975 92b9 8bff 383d 34a9 4c3c f024 91bc
00000120: aea2 4d3d 1d06 6d3d da18 a93d 87e9 a8bd
00000130: 7b3c a6bd 58ec 813d a335 163d 3c90 98bc
00000140: 2c92 8abd dda4 fd3d ce26 983c 9451 063d
00000150: bad5 aebc 374b bfbc d404 f73d 9fbd 97bd
00000160: b0f8 68b9 e0e4 77be 602d 943d e216 123b
00000170: feef 923d ae7a c4bb 4f43 ae3d 0d3e b2bc
00000180: e42a 85bd bafa a3bd bb22 e53a 6aef b93b
00000190: 6a5f 6ebd 678f 7b3c 2558 a5bc 43de efbc
000001a0: ed60 0c3e ddf3 6ebd d05e 9cbb 6a24 5a3d
000001b0: 3511 e1bc 8dc6 e03c d019 083d 032a 9f3d
000001c0: 1453 01bd 98e2 973d 1579 efbc 66ca a93c
000001d0: 3180 883c 6bf3 873d fa09 563d 0c64 f33c
000001e0: 3235 453d 1b8d 07bb e4f9 80bd 60ef a53d
000001f0: bbb7 5ebd 9de5 ddbc f9a5 73bb d070 23bd
00000200: 3d64 8f3c c68d 72bb 5905 1e3c 12c4 3e3c
00000210: 1f22 443d dd5b 043e dd49 be3b b380 c33b
00000220: cbaf 3cbc fa1b 203d 2f16 a43d d914 a5bc
00000230: 9bf1 33bb c829 76bd fbf5 f33c 8a66 cabd
00000240: 4f97 943d e085 cabd 5a76 d13d bd48 0f3d
00000250: 3374 85bc 7281 8d3d 92c5 bb3d b239 203d
00000260: dbee 0d3d 022c b53d fcc8 d93d 4ab0 9c3d
00000270: 145f 6a3d 5a1e a6bc baa8 75bd 5b6e a83c
00000280: e69b 803d e77a dcbb 6360 823d 9ed6 67bd
00000290: 1d80 38b9 5a85 58bd d273 2cbc 3fd7 99bb
000002a0: d90b 8d3d 812b 893d 5630 3d3c f56a aa3c
000002b0: 71ac bf3c 2ac3 b9bd 49e4 8e3d b38c e0bb
000002c0: 9252 acbd c9c5 4d3d 69d8 0b3e 34e8 78bd
000002d0: 8d71 043d 844d ec3d a620 a73d 260b db3c
000002e0: 6de5 8d3c b346 c4bc 9bee 993c 6985 8fbc
000002f0: 6d00 d63c 6289 883d 2ea8 0bbd 5e9e acbd
00000300: 02fc f53d 30d6 c33d f6bd 0fba 7093 843d
00000310: 87aa 4b3d 272b 843c 2ab4 76bd f6e3 3d3b
00000320: 1aa5 9fbc 8743 27bd d579 c43d 0c87 a3bd
00000330: ca3e 1e3c 57df d0bc 2816 3d3d 3121 9c3d
00000340: 9650 063e 6d1a 60bd 6a3c 1d3e 0d57 453c
00000350: c387 09be 5bef b8bd 2ef7 923d e7ca 033d
00000360: 42cd 3b3c 3a22 a53d 9926 d33b e2ab d33d
00000370: da62 8bbd f9ae 58be bf72 c6bd a064 8d3c
00000380: cca9 273d c976 1cbe c6e1 1c3e 4014 43bd
00000390: 57b6 abbc 42b1 34bd 1596 4fbd bbbd 40bc
000003a0: 63e7 30be 2db4 853d dcf9 c53d a627 853d
000003b0: 514e fbbd 0e0a e23d 3cde 1bbc bd8a 1b3e
000003c0: 5bd4 083e 73b9 333d c1c2 9c3d 8da9 0dbd
000003d0: 604d a2bd 672c 04bd 5071 0639 0228 293e
000003e0: 9044 0abe 50bb a33d 002c c23c 4e49 1f3e
000003f0: cda0 afbd 6dcf ba3d 6165 f9bc 73f6 7abd
-0.027908694 0.097588636 -0.06376798 0.0010480327 0.03843601 -0.065143295 0.040496822 0.06704671
-0.03863334 -0.01545368 -0.03365715 0.09414786 -0.05143595 0.07186487 0.020247769 0.09090696
0.02841814 0.114008 0.119888596 0.014964995 0.008793336 0.020486264 0.0399583 -0.08898586
-0.029094448 -0.13227513 0.027090931 0.087878965 0.011145349 0.06973433 -0.09323143 0.067469165
0.085590735 0.090527624 0.008537197 0.08548369 -0.04407443 0.008783649 -0.019862743 0.024661994
-0.011045973 -0.028292894 -0.057705324 -0.03609829 0.062449086 -0.090959586 0.06208366 -0.036987633
-0.0638029 0.031494804 -0.056239475 -0.058924627 -0.006139894 0.086547434 0.05025793 -0.02112875
0.03719091 -0.18716525 0.05834649 0.0067792893 -0.09862838 -0.0625534 -0.0074692466 0.062638745
0.047611386 -0.079116836 0.0015515931 0.0948312 -0.00027935 0.04516558 0.012491513 -0.017717808
0.05020397 0.05786716 0.08256693 -0.08247667 -0.081170045 0.06343907 0.036672246 -0.018623464
-0.06766161 0.12384961 0.018573191 0.032792643 -0.021342147 -0.023351295 0.12061468 -0.07409214
-0.00022217887 -0.24208403 0.07235217 0.0022291471 0.07174681 -0.00599607 0.08508932 -0.021758104
-0.06502321 -0.08006807 0.0017481664 0.0056742923 -0.058196463 0.015354014 -0.020183632 -0.029280787
0.13708849 -0.058338035 -0.0047720447 0.053257383 -0.027474025 0.027438426 0.03322774 0.07771685
-0.03157337 0.07416266 -0.029232541 0.020726394 0.016662689 0.06638225 0.05225561 0.029710792
0.048146434 -0.002068347 -0.06297663 0.08102298 -0.054374438 -0.027087027 -0.0037177785 -0.03990251
0.017503852 -0.0037010773 0.00964483 0.0116434265 0.047884103 0.12925668 0.005807145 0.00596627
-0.011516522 0.03908918 0.08012044 -0.020151542 -0.002745724 -0.06009844 0.029780379 -0.09882839
0.07255422 -0.09888816 0.10227652 0.034981478 -0.01629076 0.06909455 0.09168543 0.039117523
0.03465162 0.088462844 0.10634038 0.07650812 0.05721958 -0.020278145 -0.059975363 0.020560434
0.06279735 -0.0067285183 0.063660406 -0.05660116 -0.00017595333 -0.05286155 -0.010525661 -0.004694849
0.068870254 0.06697751 0.011547169 0.020802954 0.023397656 -0.09070428 0.06977136 -0.00685271
-0.084141865 0.05023745 0.13656773 -0.06076832 0.032334853 0.115382224 0.08160524 0.026738714
0.017321313 -0.023959493 0.018790534 -0.01751967 0.02612325 0.06666829 -0.034095936 -0.08428644
0.12010957 0.095623374 -0.00054833235 0.06473434 0.049723174 0.016133858 -0.06023041 0.0028974987
-0.019487906 -0.040835883 0.0959355 -0.079847425 0.009658525 -0.025497122 0.046163708 0.07623518
0.13116679 -0.0547127 0.15355077 0.01204468 -0.13430695 -0.090300284 0.07176052 0.032175925
0.0114625115 0.08063169 0.00644381 0.103355184 -0.06805964 -0.21160497 -0.09689855 0.017259896
0.040933415 -0.15279688 0.153205 -0.047626734 -0.02096097 -0.04411436 -0.05068024 -0.011763985
-0.17275767 0.065285064 0.096667975 0.06501703 -0.12270797 0.11037074 -0.009513434 0.15189643
0.13362257 0.04387803 0.07654334 -0.034585524 -0.07924914 -0.032268908 0.00012821448 0.16519168
-0.13502717 0.079947114 0.023702621 0.15555307 -0.08575592 0.091215946 -0.030443849 -0.06127019

4.bias f4 [4]
00000000: 89da a83d 2a42 e03c 63d1 cd3d 3225 c33d
0.08244807 0.0273753 0.10049703 0.09528579
